data.pth (torch, 5271 bytes, 6 tensors)

l1.weight f4 [8, 59]
00000000: d008 393f cf40 d6be 9f17 083d 7dc4 e43e
00000010: 5071 133f ddbd 023f 3524 383f 6f6a 81be
00000020: 9da8 2ebf e887 e23e bd8e f73e 3327 ce3e
00000030: a53f dc3e a261 ed3e 58a4 c2be 6adc 8c3e
00000040: cf1a f5be 4e16 dfbe b468 8cbe ae3e cc3e
00000050: 6a8e e6be 25e2 8bbe 5b46 0c3f da9b 143f
00000060: 6640 203f b1ae 293f 4008 563e 6b71 873e
00000070: 81e4 583e 79e1 e53e fe68 e1bd c787 6bbe
00000080: e163 0cbf 3695 b63e ccd1 09bf 740e 0b3f
00000090: b7c0 01bf 363f cebe c8d8 5fbb dfd2 1fbf
000000a0: b248 cebc b2ad c53e 8b80 ee3e d3ee f83e
000000b0: 3d85 cdbe 1544 6abe 9cb3 c2be 75d5 bcbe
000000c0: 604b 94be 56dc 273e d4c4 a23f 4cd7 2e3f
000000d0: 0a04 fb3e d388 8dbe bca9 e4be b626 7dbe
000000e0: 3bb3 8ebe 8c10 bd3e c7a9 2e3f 61ac 0cbe
000000f0: a000 fb3e ab3a 5e3f f844 5f3d 7f01 0e3f
00000100: 492e 123f f3c9 583f e524 0e3f 9936 1ebf
00000110: 00fc 103f 336b 073f 05e7 2b3f 8a6a 0a3f
00000120: 3170 213f 07f7 0dbf 9015 913f 649b d9be
00000130: 4e91 d3be 7eba 093f 0077 163f 6a8d 49bf
00000140: e86e 643f 1f55 303f 255c a2be 4666 113f
00000150: 9515 1c3f 446a 5a3f 11c9 653e 1352 24bd
00000160: b202 c93e 5a8d 443f 2202 0abf 4a3f abbe
00000170: 4e1e b5bd b059 f03e 3649 d23e 71ba 773f
00000180: df31 1bbf 1c26 243f 3259 353f fdf5 9a3f
00000190: 1907 163f d832 203f c899 273f 7627 25bf
000001a0: 3851 733f 6264 e4be 498f 503f 1d3e 0d3f
000001b0: 64dd 6f3d 7bc7 5abf 4736 80be 1bc1 4e3f
000001c0: 215e 113f c469 913f 093d e2be 7680 4b3f
000001d0: 3e5e 1b3f c089 0e3f ad1c c23e 9b61 4abf
000001e0: 5390 283f 31d3 9f3e b809 4a3f 281f adbe
000001f0: a376 433d 03e5 bc3e 1031 c13e f6be 013f
00000200: a617 353f 493c 503f 5b3f 103f 41e8 b0be
00000210: 4c2b bdbe 21f6 513d 7be7 56be 8cd1 bdbe
00000220: bae0 bc3e 92cd 81be fd7e bb3e 9447 5ebe
00000230: fb5f 19bf dffa db3e 285e 19bf 3959 19bf
00000240: fbc7 5d3f 9dab 2dbf 1484 f73e 9b69 d2bd
00000250: a423 463c 06af 573e 3732 d8bd f0e3 4b3e
00000260: 2047 37bf 8ad1 553f 5da2 06bf fd6f 3cbe
00000270: 5822 4ebc 9aca 77bf 12d4 493f dbf4 393f
00000280: 2b55 033f e5ba 363f 66f6 533e 957a c1be
00000290: c5e0 d4bd 5bbf cc3e b780 cb3e 9530 ff3e
000002a0: b052 523f f0b3 db3e bce9 21be b07a be3e
000002b0: 483a e4be 845c 56be 5f61 bdbe 0d76 033f
000002c0: 9d92 a43e f7cb 3a3c aaaf 13bf 01e0 633e
000002d0: 6e16 a93c 19f2 edbe a281 35bc 8853 84be
000002e0: 7145 0f3d 112a 633f 56cc 39be 8528 01bf
000002f0: 5ed6 95be ebdd d6be 2763 c1bd 7a9e 093f
00000300: 1e71 c7bc 4a9b 1b3f 8b4d b33e 0b79 b9bb
00000310: cd54 883c 1eb4 383f e1bc 82be 2a40 74be
00000320: a9c1 8b3d 3154 85be 12ab 8ebe 6fe4 3e3e
00000330: 7988 043e ac4f 8f3e 6fe6 753b fc44 96bd
00000340: f8ad 383f 3a72 113f 711b dbbd 1599 13bf
00000350: 67bb b8be 21d1 ffbe 27fc d23e 2c6f 893d
00000360: 5c57 23bf 5f30 1e3e 3bdd 99be 1212 a8be
00000370: e4e2 6ebe f845 1f3f 849c a9be eeb4 cf3e
00000380: e152 d8bc 5c6e f63c a0c8 ca3d 292d ecbc
00000390: 180b 10be ebad debd 13a9 0f3d 42b4 a6be
000003a0: 29cf f03e 77d5 74be d277 0fbe d079 7c3e
000003b0: 2c76 383f aa31 68be 87bf 0ebe 96ab f53e
000003c0: 85f0 c63e a777 ed3e 6076 0a3e 2c09 6dbe
000003d0: bcdd 103f 6256 813e 0995 a63e 5bf8 223e
000003e0: d530 c83e 17c9 273f 0eec 3f3e 6cfd d5be
000003f0: f05c 7a3e 6be7 763e e183 afbe 3e39 f83e
0.7227907 -0.4184632 0.03322565 0.4468116 0.57594776 0.5107096 0.7193025 -0.25276515
-0.68226033 0.44244313 0.48351088 0.40264282 0.43017307 0.4636355 -0.3801601 0.27511913
-0.47872016 -0.43571705 -0.27423632 0.3989157 -0.45030528 -0.27320972 0.54794854 0.5805031
0.62598264 0.6628218 0.20901585 0.2645372 0.21180917 0.44898584 -0.11006354 -0.23001014
-0.54839903 0.35660714 -0.5383575 0.5431893 -0.50684685 -0.402826 -0.0034156311 -0.6243114
-0.025181148 0.38609082 0.46582446 0.48619708 -0.40140715 -0.22877534 -0.38027656 -0.36881605
-0.28963757 0.16392645 1.2716317 0.68297267 0.4902652 -0.2764345 -0.44660747 -0.24721798
-0.27871117 0.36926687 0.6822781 -0.13737632 0.49023914 0.8680827 0.054509133 0.5547103
0.57101876 0.8468315 0.55525047 -0.6180206 0.5663452 0.5289795 0.6714938 0.54068816
0.63061816 -0.5545506 1.1334705 -0.42501366 -0.41321796 0.5380019 0.5877533 -0.78731406
0.8923173 0.68879884 -0.31710926 0.5679668 0.6097043 0.853184 0.22439982 -0.040117335
0.3925987 0.76778185 -0.53909504 -0.33446723 -0.08843671 0.46943426 0.4107148 0.9676886
-0.6062297 0.6412065 0.70839226 1.210632 0.5860458 0.6257758 0.65469027 -0.6451334
0.95045805 -0.44607836 0.81468636 0.551729 0.058560744 -0.85460633 -0.2504141 0.80763406
0.56784254 1.1360402 -0.4418719 0.7949289 0.6069068 0.5567894 0.37912503 -0.79055184
0.6584522 0.31215814 0.7892108 -0.33812833 0.047720563 0.36893472 0.37732744 0.5068201
0.7073921 0.8134199 0.5634667 -0.34552196 -0.36947095 0.051260117 -0.2098674 -0.37073934
0.36890203 -0.2535215 0.36620322 -0.21706992 -0.5991208 0.42964837 -0.59909296 -0.5990177
0.8663327 -0.67839986 0.48342955 -0.10274049 0.012093458 0.2106286 -0.10556453 0.1991117
-0.71592903 0.83522856 -0.52591497 -0.18402095 -0.01258143 -0.9679352 0.7883922 0.72639245
0.5130183 0.7137893 0.20699462 -0.37788835 -0.10394434 0.39989743 0.3974664 0.49841753
0.8215742 0.4291072 -0.15811819 0.37202978 -0.44575715 -0.2093373 -0.3698835 0.51352006
0.32143107 0.011401168 -0.5768992 0.2225342 0.020640578 -0.46473768 -0.01107827 -0.2584498
0.034978334 0.88736063 -0.18144354 -0.5045245 -0.29265112 -0.41966185 -0.0944274 0.5375744
-0.02434593 0.6078383 0.35020098 -0.0056601814 0.016641999 0.72149837 -0.25534728 -0.23852602
0.06824047 -0.26040795 -0.2786489 0.18641828 0.12942685 0.27990472 0.0037521382 -0.073373765
0.72140455 0.5681492 -0.106985934 -0.5765546 -0.36080477 -0.4996424 0.41208002 0.067106575
-0.63805175 0.1544814 -0.30051598 -0.32826287 -0.2332874 0.6221614 -0.33127224 0.40567726
-0.026406707 0.03008192 0.099015474 -0.028830128 -0.14066732 -0.10873016 0.03507335 -0.325594
0.4703305 -0.23909555 -0.14010552 0.24655843 0.72055316 -0.22675195 -0.1394025 0.47982472
0.38855377 0.4638035 0.13521719 -0.2314803 0.5658834 0.25261217 0.3253558 0.15915053
0.39099756 0.65541214 0.18742391 -0.41794908 0.24449515 0.24111716 -0.34280303 0.48481172

l1.bias f4 [8]
00000000: 778d 7a3f e12e 6c3f 5c5c 193f 635b 1a3f
00000010: 0816 8a3f 5a5e 913f 65cc 223f d2ef 333f
0.9787211 0.9225903 0.59906554 0.60295695 1.0787973 1.1356919 0.6359313 0.7028781

l2.weight f4 [8, 8]
00000000: 2252 a83f 8c21 96be 86c9 cc3f f61f c93d
00000010: 7589 a33f 6e05 50be 8b58 cf3f 0c14 4cbf
00000020: 7e3b e03f f27a 133f 4178 5bbe f95f 78bf
00000030: ba0f c43f f30d 1dbf 6f46 8dbe 1daa 66bf
00000040: 82fb e7be 1505 e4be d9b2 b03f ea0d a73f
00000050: 3738 d13e 13f8 f73e f9b1 c63f a1d4 8e3e
00000060: 7e51 93bf b780 6e3e 9638 ddbe 9f6e c0be
00000070: 3367 8dbd 95ca 553f 675a 72bf c046 9c3f
00000080: 9f04 8b3d b30b 00bf a6f8 3fbf 1b7d b83f
00000090: 7404 603f 9a67 933f 66e5 1e3f f78f ad3f
000000a0: 4358 883d dd39 e83d 4bba 5ebe d46a 6abe
000000b0: c181 a8be 3044 9abe d87a 73bd d6a7 e6bd
000000c0: 0faf a33e 5a24 88be 32ef 2d3e 8c55 b7bd
000000d0: eae6 70be 66ad 54be 38cb 3bbe c3e3 36be
000000e0: d67e f03e 77f3 ef3f 8f26 023c 4f43 80bf
000000f0: 160f d0be b558 b03f 6975 aabe 903d dcbe
1.3150065 -0.2932247 1.5999 0.09820549 1.2776324 -0.20314571 1.6198896 -0.7971809
1.7518156 0.57609475 -0.21432592 -0.9702144 1.5317299 -0.6134941 -0.275928 -0.9010332
-0.45309073 -0.44535127 1.380458 1.3051121 0.408632 0.48431453 1.5523063 0.27896598
-1.1509244 0.23291288 -0.43207234 -0.37584397 -0.06904449 0.8351224 -0.94669193 1.2209091
0.06787991 -0.5001785 -0.7498878 1.4413179 0.87506795 1.1515992 0.62068784 1.355956
0.066574596 0.113391615 -0.21750753 -0.22892314 -0.32911494 -0.30130148 -0.059443325 -0.11262481
0.31969497 -0.26590234 0.16985777 -0.08951864 -0.23525587 -0.20769271 -0.1833924 -0.17860322
0.46971768 1.8746175 0.007943763 -1.0020541 -0.4063651 1.3777071 -0.33292702 -0.43015718

l2.bias f4 [8]
00000000: de88 ef3e 4284 493f 3df2 06be c406 c03c
00000010: 1cc5 393f 2f4f 81be cfbc 8bbe 1cbb 273f
0.4678411 0.78717434 -0.13178344 0.023440726 0.7256639 -0.25255725 -0.27292487 0.6551988

l3.weight f4 [8, 8]
00000000: 2eb7 80bf 22a9 74bf 4667 25bf 8708 583f
00000010: cbc7 4a3e a39d d43d dae4 4e3e 0012 133f
00000020: f4fd 903e 4a07 8fbf 61d4 aa3e c5da b0bf
00000030: 69c1 d6be c71a 673c b321 b43e cbbe 1f3f
00000040: 6294 96bf 140e dfbe c6a4 ae3e 70d5 df3e
00000050: be2f 323f a35c 273e 26b9 83be bcd9 84bf
00000060: ad27 3b3e dc40 76bf b79c 193f ac4b f4bf
00000070: 93e1 403f f2fa 2e3e ffe2 6bbe dbd3 c6bf
00000080: 4cf5 3cbe 41e9 283f 711e e1bf e9fc dcbf
00000090: 415d 563f ca34 943c a2f6 6ebe 9b75 4f3e
000000a0: a3d8 92bf 2410 aa3e 3ddb aabf 034c c1be
000000b0: 4aee b6bf ae3d 93be dc7e 983d 89ce 7f3f
000000c0: f328 ee3e 590b 163f ff4f b3be 9170 42bf
000000d0: 4136 fdbf 7857 863d 8bbe 74be 030e 35bd
000000e0: b4a0 0c3f 23ba 073f d3f9 6a3e d909 68be
000000f0: ac67 a9be 1051 82be d372 8f3e f8e6 d1bf
-1.0055902 -0.95570576 -0.6461071 0.8438801 0.19802777 0.10381629 0.20204487 0.5744934
0.2831875 -1.11741 0.33365157 -1.3816763 -0.41944435 0.014105505 0.3518196 0.624005
-1.1764033 -0.43565428 0.34110087 0.43717527 0.696041 0.16343932 -0.25727195 -1.0378947
0.18276854 -0.9619272 0.6000475 -1.9085593 0.753442 0.17087916 -0.23035811 -1.5533403
-0.18452948 0.6598092 -1.7587415 -1.7264682 0.83736044 0.018091578 -0.2333627 0.20259707
-1.1472362 0.3321544 -1.3348156 -0.37753305 -1.429147 -0.28757995 0.074460715 0.9992452
0.46515617 0.58611065 -0.3502197 -0.7595301 -1.9782182 0.06559652 -0.23900811 -0.044202816
0.54932714 0.530184 0.22946863 -0.22660007 -0.33086908 -0.2545247 0.2801729 -1.6398611

l3.bias f4 [8]
00000000: 293e 84bd 3ab5 8c3c e063 18be 8e7e aa3d
00000010: f7c3 95bd 6eb5 343e e01a 0b3d 39e4 90be
-0.064571686 0.01717626 -0.1488185 0.0832492 -0.07312768 0.17647335 0.033961177 -0.2829912
